AutoEncoder/model.pt (torch_old, 104505 bytes, 12 tensors)

encoder.embedding.weight f4 [68, 50]
-0.6542815 0.6706979 0.4706656 -2.1136775 0.34077418 -1.1043234 -1.0837576 1.4786756
-0.41916507 0.48765662 -0.50879383 0.45994955 -0.19380383 -2.3850076 2.0936584 -1.9890264
-0.9793735 0.8439091 -0.25665265 0.27968928 0.77964824 -1.5580462 -0.5802933 -0.04037442
-0.6606083 0.10454402 2.049364 -0.026816241 0.37131327 -0.8798736 1.1238875 0.46675515
-2.7595115 -0.30044487 0.9144683 -1.1404511 -0.66940737 -2.9060528 -0.9067564 -1.2684859
-0.9981587 -0.9225063 0.16323066 -0.76628304 0.5894747 0.9731492 -0.21392836 -0.524582
-0.50294304 -2.3396704 1.3929607 -0.17303665 -0.3431423 -1.4857327 -0.20392661 -0.9924872
-0.48922074 -0.62895596 1.7571992 1.5580546 3.0584989 -0.096642874 0.5753609 -0.6458911
0.25042862 0.031599164 1.0115976 -0.62907076 -1.0881644 -0.8681056 -1.1728506 -1.6834173
-1.3614166 1.742147 0.17680515 0.80102724 -0.09472534 -0.82868695 0.66147405 -0.5321893
0.25430757 0.47346336 -2.0123897 -0.8306463 0.21648218 -1.328658 2.7486243 -0.7780249
1.1847326 1.8763926 -1.2387083 0.5525636 -0.5443412 -1.0563084 1.6968687 0.19188777
0.19379432 -0.11467969 0.86876464 -0.29093188 0.55533284 -0.5086432 0.69413614 -2.1477883
0.24121138 -0.03103892 -0.34374148 0.29084915 1.4492208 -1.7692393 -1.7506709 0.32936502
-0.041171763 -1.0707705 -0.013688411 0.9601819 1.0812216 -1.2807059 -0.7088808 1.7691957
1.4624916 -1.6781285 -1.2170534 -1.440859 -0.6858517 0.26634434 -0.0004016573 0.04917092
0.44706485 -0.7749472 -0.13999245 -0.9936089 -0.57569474 -1.083347 -0.64639205 0.18949525
0.23182765 -0.84256136 1.2166122 0.33959776 1.2858353 1.6281048 0.57036906 0.19722126
0.6502104 -1.8844903 -0.7741273 -0.21349217 -1.7341601 1.7123212 -0.87479854 2.1196563
-0.16774315 1.6725702 -1.5409634 -1.0598207 -1.1357685 -2.1857474 0.19039766 1.4817548
-0.27340567 0.43657386 1.3023 -0.94228387 -1.3505636 -0.6453548 0.69935685 -0.040780168
-0.98233217 -0.6087842 0.0578918 1.3037113 -1.4759017 1.060368 0.8042847 0.2082071
0.1662053 -0.42637208 -0.43917626 0.106856085 0.91537243 1.0376374 -0.36864153 0.26481876
1.895633 -0.010262719 -0.91048115 -0.9641982 0.2913981 -1.211647 0.3002103 0.32510978
0.43109074 -2.4737425 -2.4551477 -1.917878 -0.69241124 0.3027553 0.41676074 -0.109429836
-0.33484432 0.20482068 0.7761837 -0.00610009 -0.081607744 -0.24884842 -0.26942244 0.33485177
1.2790931 -0.46740615 -0.62425846 -1.6049165 1.3849589 -0.6642351 0.5515556 0.633778
-0.89942133 2.1244445 1.2370749 -0.10487601 0.18793066 0.2730088 1.1021813 0.09322615
0.1446124 -1.0096606 -0.5352798 -0.28914067 1.6957331 -0.19985256 -1.0345744 -1.3638185
-1.1055168 1.3493128 -1.2430595 0.75604993 1.8256575 -1.9883466 0.4210702 -1.1100104
0.19984218 -0.07585363 -2.1803968 -0.6709783 0.5189008 0.837118 -0.84753454 -0.14846057
-0.12614171 0.66887456 -0.055703912 2.2972991 0.25179937 0.7030216 2.0070388 0.16335152
00000000: fe7e 27bf dcb2 2b3f 15fb f03e 7e46 07c0
00000010: f479 ae3e 785a 8dbf 92b8 8abf 3e45 bd3f
00000020: ce9c d6be 21ae f93e 5040 02bf 827e eb3e
00000030: 8374 46be f7a3 18c0 80fe 0540 6b98 febf
00000040: 39b8 7abf 6d0a 583f fa67 83be 6f33 8f3e
00000050: 0797 473f 0f6e c7bf 1a8e 14bf a65f 25bd
00000060: a01d 29bf 2d1b d63d c828 0340 bcad dbbc
00000070: c61c be3e 653f 61bf 8cdb 8f3f 88fa ee3e
00000080: d69b 30c0 e9d3 99be 981a 6a3f 4dfa 91bf
00000090: 485e 2bbf c5fc 39c0 3021 68bf bf5d a2bf
000000a0: 5487 7fbf 5f29 6cbf f025 273e 202b 44bf
000000b0: d0e7 163f 4e20 793f 0910 5bbe 024b 06bf
000000c0: e0c0 00bf 29bd 15c0 894c b23f 8530 31be
000000d0: 59b0 afbe 7d2c bebf 23d2 50be a413 7ebf
000000e0: 247b fabe 4203 21bf e7eb e03f 556e c73f
000000f0: 72be 4340 b3ec c5bd da4a 133f 1e59 25bf
00000100: 2e38 803e 206e 013d 087c 813f c80a 21bf
00000110: f948 8bbf 2b3c 5ebf f81f 96bf 387a d7bf
00000120: e642 aebf acfe de3f 690c 353e 1f10 4d3f
00000130: 5cff c1bd d424 54bf 5d56 293f 8f3d 08bf
00000140: 9a34 823e ca69 f23e feca 00c0 3ca5 54bf
00000150: 81ad 5d3e 7711 aabf 76e9 2f40 a42c 47bf
00000160: 51a5 973f a22d f03f fe8d 9ebf cf74 0d3f
00000170: f259 0bbf 1d35 87bf fe32 d93f 3a7e 443e
00000180: 0572 463e 2fdd eabd 5c67 5e3f 06f5 94be
00000190: 4b2a 0e3f 7136 02bf e8b2 313f 5d75 09c0
000001a0: 1e00 773e 5545 febc e2fe afbe 2eea 943e
000001b0: 1180 b93f 6f76 e2bf fc15 e0bf 88a2 a83e
000001c0: b9a3 28bd 020f 89bf 5b45 60bc 7bce 753f
000001d0: 7865 8a3f 2cee a3bf 3679 35bf 0175 e23f
000001e0: ed32 bb3f eacc d6bf 68c8 9bbf 116e b8bf
000001f0: fa93 2fbf 495e 883e 8895 d2b9 7267 493d
00000200: afe5 e43e f162 46bf 2e5a 0fbe 275d 7ebf
00000210: bb60 13bf 1dab 8abf f379 25bf 0b0b 423e
00000220: 3a64 6d3e 1ab2 57bf f3b9 9b3f c2df ad3e
00000230: 4096 a43f bd65 d03f b503 123f 5ff4 493e
00000240: 3074 263f fa36 f1bf 352d 46bf b19d 5abe
00000250: f5f8 ddbf 572d db3f ccf2 5fbf 73a8 0740
00000260: dcc4 2bbe c816 d63f 4a3e c5bf 34a8 87bf
00000270: dd60 91bf 49e3 0bc0 9bf7 423e 24aa bd3f
00000280: d4fb 8bbe 9c86 df3e c4b1 a63f 8439 71bf
00000290: 45df acbf f935 25bf 0d09 333f 1b09 27bd
000002a0: 1f7a 7bbf 48d9 1bbf f41f 6d3d 03e0 a63f
000002b0: 59ea bcbf 23ba 873f 9ae5 4d3f 3e34 553e
000002c0: b931 2a3e 714d dabe b6db e0be 5dd7 da3d
000002d0: d955 6a3f 4dd1 843f 95be bcbe 5396 873e
000002e0: 1aa4 f23f f724 28bc 4b15 69bf b1d5 76bf
000002f0: 2232 953e 4017 9bbf 2ab5 993e ca74 a63e
00000300: edb7 dc3e cc51 1ec0 2421 1dc0 077d f5bf
00000310: dd41 31bf be02 9b3e aa61 d53e c01c e0bd
00000320: b770 abbe 83bc 513e fab3 463f 44e3 c7bb
00000330: f621 a7bd 1fd2 7ebe bdf1 89be b171 ab3e
00000340: 53b9 a33f dc4f efbe 67cf 1fbf e76d cdbf
00000350: 5546 b13f 500b 2abf bf32 0d3f 463f 223f
00000360: 7a40 66bf e6f6 0740 7858 9e3f 3cc9 d6bd
00000370: e570 403e cfc7 8b3e 4714 8d3f 5aed be3d
00000380: 4615 143e 8f3c 81bf 1908 09bf 3f0a 94be
00000390: c80d d93f 26a6 4cbe ef6c 84bf 9b91 aebf
000003a0: 9381 8dbf 48b6 ac3f 931c 9fbf 7d8c 413f
000003b0: 25af e93f 2482 febf 8396 d73e d214 8ebf
000003c0: 6ea3 4c3e 2659 9bbd 9f8b 0bc0 3cc5 2bbf
000003d0: afd6 043f 5e4d 563f 06f8 58bf 0c06 18be
000003e0: 4b2b 01be 5d3b 2b3f c929 64bd f306 1340
000003f0: d9eb 803e 39f9 333f 5373 0040 9f45 273e

encoder.lstm.weight_ih_l0 f4 [64, 50]
0.4763152 -0.017263127 0.06444274 -0.28333116 0.15272056 0.2991197 0.4074695 0.3007728
0.78747076 -0.17263287 0.31186262 0.51357526 0.21211453 -0.28243187 0.092000514 0.24463542
-0.09971208 -0.28021312 0.6151293 0.21298628 -0.19470708 -0.50038207 -0.048904717 0.29310095
-0.2594405 0.12322708 -0.014733137 -0.12800094 0.32363948 -0.44710124 -0.17975502 0.24855444
-0.29531828 0.1862511 -0.14593217 0.08537131 0.15988195 0.1205598 0.07946586 -0.25173336
-0.038072303 0.03618105 0.69150954 -0.22008276 0.04202206 0.28215086 -0.48919576 -0.034046523
-0.10124088 0.30106378 0.16234063 0.0037119992 0.07647651 0.33134553 -0.5433295 -0.389903
0.18109041 -0.039634474 0.16360836 0.07085385 -0.0025481808 -0.10641553 0.08753479 0.09318851
-0.24868268 0.43498507 0.15902175 -0.6603544 -0.23607133 0.791265 0.23095624 -0.13163185
-0.40038955 -0.17838338 0.012058653 -0.427217 -0.17220104 -0.23425464 0.20286208 0.19179982
0.68092126 0.12409735 0.37536263 -0.018947955 0.06264134 -0.30286187 -0.5405991 0.16978315
0.63878477 -0.038104273 0.14455052 -0.2676994 -0.4378225 0.065459006 -0.25404686 -0.20803627
0.057550874 0.13166076 0.2910227 0.4386953 0.19580737 -0.27876782 -0.05530313 0.21061331
0.24700844 -0.25892743 -0.46297663 0.16259809 0.49996376 -0.37406996 0.1350291 0.26799044
0.46172485 -0.9446459 0.051508397 0.29825163 0.30520016 -0.36031404 -0.027021963 0.03895438
-0.27462962 0.09229182 0.022781232 -0.33011693 0.26479176 -0.07399485 -0.107803985 -0.264676
0.27625385 -0.6441881 0.62941736 0.11527822 -0.33802986 0.3859558 0.06958292 -0.22216669
0.4215411 0.08523264 0.037532106 -0.10864332 -0.18932904 0.24443223 0.20657767 -0.38091692
-0.54176563 -0.25591952 0.04761395 0.113502845 0.42462707 -0.35876104 0.16701181 0.12337455
-0.34548202 -0.06313446 -0.020879107 0.57764477 -0.52204055 -0.07583264 0.16785684 -0.072621
-0.045631662 0.15309307 0.13141286 0.22536002 0.13805102 0.40100124 0.08797835 -0.049692076
-0.07559375 0.6503437 0.07354608 -0.2529415 -0.3563243 -0.69563305 -0.14931096 0.066430695
0.06419893 -0.13983971 -0.06635758 -0.030576834 -0.07389326 0.15002485 0.027139187 0.4841836
0.14526993 0.32316095 -0.38489437 -0.061827548 0.39593977 -0.70629 -0.39982805 -0.18173595
-0.030295422 -0.11625596 -0.20240486 -0.18755524 -0.4731696 0.26013616 0.15759309 -0.022708263
0.18221214 -0.29575783 -0.041358866 0.15698896 -0.43052396 -0.14542823 0.26660845 0.40402415
0.13320224 0.11732055 0.098146856 -0.28759214 0.012483901 -0.6250863 -0.3462349 -0.04110212
0.0063404483 -0.38403136 0.32971865 0.12681638 0.091711365 0.09121436 -0.19996496 0.5762926
0.43336552 -0.21274225 -0.09830963 -0.099440105 0.113991745 -0.58047837 0.03942899 0.01315158
-0.014676619 0.1355483 -0.11186443 -0.10518664 -0.25448158 -0.0025214662 0.51331025 -0.1404611
-0.39923656 -0.15387747 -0.2902504 -0.4790412 -0.09529743 0.3709498 0.28624558 0.24522202
0.028131029 0.34334475 -0.23602518 0.10767739 -0.3069426 0.06567775 0.06596866 -0.28596658
00000000: 96df f33e 676b 8dbc 8efa 833d c810 91be
00000010: c762 1c3e 3826 993e d89f d03e e4fe 993e
00000020: af97 493f acc6 30be 75ac 9f3e ab79 033f
00000030: 8d34 593e e99a 90be c46a bc3d b581 7a3e
00000040: d935 ccbd 1878 8fbe 1d79 1d3f 1319 5a3e
00000050: 4b61 47be 0a19 00bf 5050 48bd 5411 963e
00000060: 63d5 84be 7b5e fc3d 4163 71bc ae12 03be
00000070: 13b4 a53e 74ea e4be b311 38be 0e85 7e3e
00000080: f533 97be 9cb8 3e3e 3e6f 15be 27d7 ae3d
00000090: 18b8 233e 0ee8 f63d ffbe a23d 32e3 80be
000000a0: b4f1 1bbd 9532 143d c506 313f 605d 61be
000000b0: 531f 2c3d 1476 903e de77 fabe 5e74 0bbd
000000c0: 6157 cfbd 0825 9a3e 9f3c 263e 0345 733b
000000d0: b79f 9c3d 1fa6 a93e a417 0bbf 5ea1 c7be
000000e0: c46f 393e c257 22bd f388 273e d31b 913d
000000f0: 61ff 26bb 63f0 d9bd 7145 b33d 9ed9 be3d
00000100: aca6 7ebe 5db6 de3e 99d6 223e fc0c 29bf
00000110: afbc 71be 5890 4a3f cb7f 6c3e 80ca 06be
00000120: dcff ccbe 22aa 36be a891 453c 30bc dabe
00000130: 7855 30be 73e0 6fbe 14bb 4f3e 2c67 443e
00000140: db50 2e3f c026 fe3d 882f c03e be38 9bbc
00000150: 1a4a 803d b610 9bbe b464 0abf a2db 2d3e
00000160: 6687 233f 3a13 1cbd 0d05 143e e50f 89be
00000170: 452a e0be 5f0f 863d 6e12 82be 7607 55be
00000180: 77ba 6b3d 14d2 063e ed00 953e ac9c e03e
00000190: ba81 483e a8ba 8ebe 8985 62bd 04ab 573e
000001a0: c8ef 7c3e 2392 84be 460b edbe 1d80 263e
000001b0: 40fb ff3e 1986 bfbe 1245 0a3e 0b36 893e
000001c0: 3367 ec3e 50d4 71bf 78fa 523d 70b4 983e
000001d0: 3243 9c3e 157b b8be 2a5d ddbc a18e 1f3d
000001e0: 419c 8cbe 7e03 bd3d b59f ba3c 1605 a9be
000001f0: c992 873e 9d8a 97bd 56c8 dcbd 9d83 87be
00000200: 2571 8d3e 83e9 24bf 7f21 213f fd16 ec3d
00000210: 4012 adbe 009c c53e 7d81 8e3d aa7f 63be
00000220: 3cd4 d73e 738e ae3d 44bb 193d 6480 debd
00000230: 79df 41be 714c 7a3e 1989 533e 8b07 c3be
00000240: 27b1 0abf e207 83be d806 433d 2e74 e83d
00000250: b868 d93e 87af b7be 2505 2b3e ccab fc3d
00000260: 05e3 b0be a44c 81bd a90a abbc 87e0 133f
00000270: 73a4 05bf 254e 9bbd aae2 2b3e 52ba 94bd
00000280: 44e8 3abd 6ec4 1c3e 1891 063e c7c4 663e
00000290: 3f5d 0d3e 0950 cd3e fe2d b43d eb89 4bbd
000002a0: e5d0 9abd ed7c 263f 549f 963d 8c81 81be
000002b0: 2370 b6be 0215 32bf f9e4 18be d10c 883d
000002c0: bb7a 833d 2432 0fbe 7ce6 87bd 457c fabc
000002d0: 5955 97bd 1da0 193e 0053 de3c eae6 f73e
000002e0: a4c1 143e 5a75 a53e e010 c5be e23e 7dbd
000002f0: 9eb8 ca3e 6ccf 34bf 43b6 ccbe fd18 3abe
00000300: 1b2e f8bc 9b17 eebd 3843 4fbe 7b0e 40be
00000310: 4943 f2be 9130 853e 1560 213e ae06 babc
00000320: d295 3a3e 926d 97be ea67 29bd b7c1 203e
00000330: a36d dcbe 23eb 14be e780 883e 41dc ce3e
00000340: 2b66 083e c245 f03d 3801 c93d 473f 93be
00000350: 4789 4c3c a805 20bf b345 b1be b25a 28bd
00000360: 89c3 cf3b c29f c4be e2d0 a83e 27dc 013e
00000370: 2bd3 bb3d 98ce ba3d 9dc3 4cbe e987 133f
00000380: 16e2 dd3e 1bd9 59be 8f56 c9bd 41a7 cbbd
00000390: 8174 e93d 3b9a 14bf 4b80 213d b979 573c
000003a0: 3476 70bc 2ccd 0a3e 2e19 e5bd 186c d7bd
000003b0: 694b 82be 2f3f 25bb 4d68 033f 09d5 0fbe
000003c0: bc68 ccbe 0e92 1dbe b39b 94be e344 f5be
000003d0: 4d2b c3bd 22ed bd3e c88e 923e 7b1b 7b3e
000003e0: 0b73 e63c e2ca af3e 96b0 71be f785 dc3d
000003f0: 9527 9dbe 0e82 863d 941a 873d 366a 92be

encoder.lstm.weight_hh_l0 f4 [64, 16]
-0.3421998 -0.47437283 -0.4174509 -0.32824394 0.081978776 0.34776124 0.042210083 -0.43869984
-0.15488078 -0.012119057 -0.036050618 -0.3397026 1.2295585 -0.2620501 0.12735777 0.010069901
0.12830332 -0.87510854 -0.2586902 -1.5482355 -1.8011597 -0.40203115 -0.06520998 -0.9247207
-0.110345356 -0.6377063 -0.17554006 -0.37267599 -0.73278373 -0.26351646 0.5892213 1.2527221
0.38526177 -1.0768838 0.2388253 0.2566615 -0.2993688 -0.37684286 -0.29676795 -0.934197
-1.015154 -0.7206588 0.120964706 -0.43094194 -0.57333547 0.20965745 -0.24032398 -0.27950108
-0.8170175 -0.8214037 -0.73068506 0.12169939 0.40604374 -0.31445426 -0.29830977 0.27091962
0.55019313 -0.69891673 1.3092474 -0.44880176 0.19403075 -0.6336234 0.09819789 0.8200211
0.21230866 -1.5705311 0.3322747 0.35829866 -0.28177363 0.8300769 -0.35837713 -0.53390753
-0.7149465 -0.27674237 -0.0233206 0.042838912 -0.043947533 -0.33722445 -0.018269062 -0.16379336
-0.70672363 -0.3799549 0.17499886 0.72491634 -1.0810024 0.07631839 -0.11480906 -0.78505266
-1.4531993 -0.102858804 -0.35907376 -0.20043555 -1.3288763 -0.0036501703 0.10840377 0.2986971
0.60843843 -0.1777711 -0.5625657 0.8039628 -0.34895715 1.1430701 -0.82279897 -0.9557245
-0.30847925 -0.602424 -0.45491132 -0.73221123 -1.1878091 -0.6695774 0.29305103 -0.287719
-0.41205472 -0.16055234 -0.6765179 0.8840727 0.79796505 0.06288012 -0.7406441 0.63930726
1.413511 -0.6584052 -0.015750779 0.04851436 -0.3638555 0.39982936 -0.4234421 0.66815525
0.37685385 -0.76860505 -0.43243396 -0.33926165 -0.458625 2.0810156 -0.619707 -0.21164845
0.2169184 -1.2368617 1.5445775 -0.6799652 0.3197461 0.33307815 1.5311105 0.9178528
-1.1479928 0.33740216 0.23491637 -0.05145212 -1.4783304 -0.70320046 -0.77321476 -1.4319015
-0.8734692 -1.5820978 0.09019469 -0.2825064 0.06921064 -0.80195886 -0.02173721 0.733393
-0.3424084 0.27129218 -0.18313812 -0.19877082 -0.09506331 0.37351957 -0.41136476 0.12837717
0.14648913 -0.6960596 0.026135601 0.09262326 -0.008231579 0.95935917 -0.43430465 0.36390024
-0.1757815 0.16528368 0.033837195 -0.1119637 0.37989718 -0.124771 0.049168173 -0.47456756
-0.6518131 -0.6706064 -0.115670435 0.039021358 0.13615258 -0.46595067 -0.020902898 -0.027822156
-0.90226454 -1.9536453 0.40515146 0.017509708 -1.0367956 0.1445484 -0.112180986 -0.99681294
-0.6037302 -0.5200039 0.018772759 -0.691044 0.17103985 -1.0990536 0.2524511 1.2762777
-0.21604097 -0.04203149 -0.80180705 -0.4817098 0.036506657 1.6448056 0.058359988 0.08758543
0.4282306 -1.1724085 1.1827984 -1.2164197 -0.06889245 -0.09287354 -0.07788599 0.24329376
-0.2194318 0.44285613 -0.67034125 0.07276426 -0.3698625 -0.5672512 -0.52412045 0.72818875
1.3373703 -0.65348715 0.1668938 -0.44646865 -0.2694856 0.7377638 -0.38241762 0.92274153
0.21887563 -0.26369256 -0.12382805 -0.90220743 0.10899147 -1.1363708 -0.3464597 -0.7921031
-0.89946866 -0.4220886 -0.57144135 -0.37222347 -0.43222734 0.39020887 -0.52713025 -0.5406267
00000000: d034 afbe ffe0 f2be 20bc d5be 970f a8be
00000010: 7de4 a73d c30d b23e 7be4 2c3d 449d e0be
00000020: 1199 1ebe 028f 46bc d0a9 13bd 80ed adbe
00000030: 2c62 9d3f 6e2b 86be 136a 023e 3afc 243c
00000040: f261 033e 1d07 60bf 0b73 84be 952c c6bf
00000050: 678c e6bf 07d7 cdbe cf8c 85bd 7fba 6cbf
00000060: bffc e1bd b840 23bf c6c0 33be 63cf bebe
00000070: b797 3bbf a1eb 86be 35d7 163f 3359 a03f
00000080: 0841 c53e 54d7 89bf 9f8e 743e 2369 833e
00000090: de46 99be 8cf1 c0be f8f1 97be 8927 6fbf
000000a0: 91f0 81bf 187d 38bf 58bc f73d 6ca4 dcbe
000000b0: 1dc6 12bf 71b0 563e 7d17 76be c41a 8fbe
000000c0: 0f28 51bf 8347 52bf 2d0e 3bbf 883d f93d
000000d0: f7e4 cf3e 2600 a1be 0fbc 98be fab5 8a3e
000000e0: 75d9 0c3f 35ec 32bf 6b95 a73f 58c9 e5be
000000f0: ffaf 463e 2535 22bf fa1b c93d e7ec 513f
00000100: 7167 593e 2a07 c9bf e91f aa3e ec72 b73e
00000110: a244 90be eb7f 543f 357d b7be 2aae 08bf
00000120: bc06 37bf 2db1 8dbe d80a bfbc db77 2f3d
00000130: 5402 34bd afa8 acbe 00a9 95bc 72b9 27be
00000140: d7eb 34bf 7389 c2be e732 333e 1e94 393f
00000150: 495e 8abf d14c 9c3d 0321 ebbd 36f9 48bf
00000160: 6f02 babf a3a7 d2bd 84d8 b7be fa3e 4dbe
00000170: 9e18 aabf b237 6fbb cc02 de3d d4ee 983e
00000180: 9fc2 1b3f a109 36be 4e04 10bf 82d0 4d3f
00000190: 83aa b2be 1f50 923f f4a2 52bf 5caa 74bf
000001a0: fef0 9dbe 7638 1abf 23ea e8be 3272 3bbf
000001b0: 210a 98bf 6d69 2bbf c90a 963e e84f 93be
000001c0: d6f8 d2be d567 24be 4730 2dbf 9752 623f
000001d0: 7047 4c3f 4bc7 803d da9a 3dbf a4a9 233f
000001e0: eeed b43f 3e8d 28bf c707 81bc feb6 463d
000001f0: 454b babe 6fb6 cc3e 67cd d8be 390c 2b3f
00000200: fdf2 c03e 4dc3 44bf fc67 ddbe b4b3 adbe
00000210: e5d0 eabe 5c2f 0540 1ea5 1ebf 5fba 58be
00000220: db1f 5e3e 7c51 9ebf b7b4 c53f 3312 2ebf
00000230: c3b5 a33e 3889 aa3e 6efb c33f 67f8 6a3f
00000240: 6ef1 92bf fabf ac3e eb8d 703e 75bf 52bd
00000250: ee39 bdbf f204 34bf 67f1 45bf 8c48 b7bf
00000260: ad9b 5fbf 2e82 cabf feb7 b83d aea4 90be
00000270: 4fbe 8d3d 2d4d 4dbf 3c12 b2bc a5bf 3b3f
00000280: 2750 afbe cfe6 8a3e 8f88 3bbe 948a 4bbe
00000290: 8db0 c2bd f53d bf3e 679e d2be 4e75 033e
000002a0: 3f01 163e f630 32bf 541a d63c 44b1 bd3d
000002b0: bfdd 06bc 9098 753f 2e5d debe 2251 ba3e
000002c0: 1100 34be 2040 293e df98 0a3d 394d e5bd
000002d0: e281 c23e f087 ffbd 9164 493d 85fa f2be
000002e0: 39dd 26bf dcac 2bbf 9fe4 ecbd dcd4 1f3d
000002f0: 956b 0b3e 1691 eebe 8e3c abbc 4aeb e3bc
00000300: cffa 66bf 0d11 fabf 0370 cf3e 8570 8f3c
00000310: b8b5 84bf 7f04 143e 25bf e5bd 222f 7fbf
00000320: 108e 1abf fa1e 05bf 54c9 993c 42e8 30bf
00000330: 1225 2f3e caad 8cbf 4541 813e 115d a33f
00000340: d839 5dbe 3629 2cbd 3a43 4dbf aba2 f6be
00000350: 0188 153d fd88 d23f e20a 6f3d fd5f b33d
00000360: 0b41 db3e 7b11 96bf f065 973f a4b3 9bbf
00000370: 7c17 8dbd 7c34 bebd b182 9fbd 0022 793e
00000380: bbb2 60be 0abe e23e 7c9b 2bbf 6e05 953d
00000390: 9e5e bdbe 6037 11bf c22c 06bf 946a 3a3f
000003a0: f32e ab3f ef4a 27bf 35e6 2a3e 8a97 e4be
000003b0: 04fa 89be 17de 3c3f 3ecc c3be ca38 6c3f
000003c0: ef20 603e b602 87be 9099 fdbd 11f7 66bf
000003d0: eb36 df3d 9974 91bf 2a63 b1be 45c7 4abf
000003e0: 9443 66bf ff1b d8be fb49 12bf 1394 bebe
000003f0: e74c ddbe 75c9 c73e 02f2 06bf 8366 0abf

encoder.lstm.bias_ih_l0 f4 [64]
0.5995712 0.16935524 0.4027678 0.58287644 0.2958577 0.2591643 0.39423385 0.2252373
0.42337495 0.61233586 0.14617422 0.57726437 0.09518229 0.32272202 0.72678494 0.6524776
0.16947477 -0.06552509 -0.09876761 -0.08501138 0.060916163 -0.24838138 -0.31975615 0.33898282
-0.3563737 -0.41964173 -0.26557535 -0.09938948 -0.18488558 -0.10930314 -0.107945174 0.055199247
-0.3028687 -0.027312266 -0.2991113 -0.105830185 0.03365233 -0.25544605 -0.19048072 -0.07667509
-0.014137063 -0.08810255 0.13205862 -0.3546741 -0.15883191 -0.06904975 -0.13219279 0.10267904
0.7092982 0.31025523 0.36973354 0.2772852 0.39974567 0.572557 0.33759537 0.09875974
0.65151453 0.35961294 0.18342847 0.32233366 0.3240675 0.264065 0.61548513 0.15958473
00000000: 807d 193f 766b 2d3e 9537 ce3e 6437 153f
00000010: a97a 973e 2fb1 843e 05d9 c93e 9ba4 663e
00000020: 9ac4 d83e 0bc2 1c3f b2ae 153e 99c7 133f
00000030: efee c23d d23b a53e 940e 3a3f c608 273f
00000040: cb8a 2d3e 0532 86bd ac46 cabd 721a aebd
00000050: 3a83 793d b057 7ebe 14b7 a3be 288f ad3e
00000060: 9d76 b6be 48db d6be 7ef9 87be b68c cbbd
00000070: a552 3dbe 53da dfbd 5c12 ddbd 9b18 623d
00000080: 9b11 9bbe f9bd dfbc 1e25 99be 7fbd d8bd
00000090: 07d7 093d d3c9 82be 610d 43be d407 9dbd
000000a0: 249f 67bc 1c6f b4bd 603a 073e d897 b5be
000000b0: d5a4 22be f569 8dbd 8c5d 07be 6349 d23d
000000c0: 9194 353f c6d9 9e3e b74d bd3e 53f8 8d3e
000000d0: 77ab cc3e 1893 123f 4dd9 ac3e 8c42 ca3d
000000e0: a8c9 263f 301f b83e acd4 3b3e eb08 a53e
000000f0: 2dec a53e 8733 873e 6f90 1d3f 2e6a 233e

encoder.lstm.bias_hh_l0 f4 [64]
0.5827139 0.2093414 0.28376898 0.39699948 0.25085464 0.61498356 0.53757757 0.32040516
0.3516401 0.67774826 0.35270908 0.4681299 0.34111142 0.17503479 0.5811262 0.3279902
-0.19864175 -0.14876077 0.043364607 -0.17834464 -0.13029464 -0.20153575 -0.14427096 0.119289376
-0.2611869 -0.15614873 0.056837413 0.3070255 0.048268452 -0.013377486 -0.24431425 0.16700245
-0.20447055 -0.025535801 -0.26798937 -0.02034494 -0.26674128 0.11580874 -0.06567468 -0.080775306
0.062329408 -0.17003451 0.35338533 -0.26426956 -0.15459265 -0.06761752 -0.27334622 -0.096243955
0.308466 0.2619259 0.20042409 0.5615127 -0.02189535 0.5109898 0.29437193 0.26247975
0.92222834 0.07593078 0.31082332 0.35265946 0.47760874 0.4815723 0.5140489 0.49842125
00000000: bd2c 153f 985d 563e 2b4a 913e 8443 cb3e
00000010: 0570 803e 906f 1d3f af9e 093f 250c a43e
00000020: 2c0a b43e e980 2d3f 4996 b43e b9ae ef3e
00000030: 28a6 ae3e 523c 333e b0c4 143f 55ee a73e
00000040: be68 4bbe be54 18be 169f 313d fa9f 36be
00000050: f56b 05be 635f 4ebe c4bb 13be fd4d f43d
00000060: 4aba 85be 74e5 1fbe 59ce 683d 7232 9d3e
00000070: 24b5 453d 3e2d 5bbc 842d 7abe b102 2b3e
00000080: ba60 51be 7530 d1bc e735 89be 6eaa a6bc
00000090: 5092 88be 222d ed3d 7280 86bd 866d a5bd
000000a0: 1f4d 7f3d 871d 2ebe ecee b43e 574e 87be
000000b0: 894d 1ebe 0e7b 8abd 09f4 8bbe 8d1b c5bd
000000c0: 41ef 9d3e 271b 863e f93b 4d3e 4cbf 0f3f
000000d0: e15d b3bc 3ad0 023f ebb7 963e bf63 863e
000000e0: 2817 6c3f 9981 9b3d 3c24 9f3e c88f b43e
000000f0: 2289 f43e a590 f63e b598 033f 1231 ff3e

decoder.embedding.weight f4 [50, 16]
1.7145113 0.93727994 1.3555195 0.15755491 -0.5146233 -1.5624976 -0.7255337 1.7843139
-0.5045924 -0.6749457 0.018973703 0.49345678 0.524863 0.45862165 0.15148912 -0.05510911
0.07304462 0.81489044 0.6435458 -2.3187685 -0.022288058 -0.2334665 -0.26052967 0.017149203
-0.049120445 0.22164816 0.16076012 -0.6707093 0.35548687 -0.9083529 -1.1002347 -1.5788492
0.6813967 -0.66763663 1.8854786 -0.07174629 -1.8254131 -0.6188644 -0.26155996 0.32205498
0.87969685 0.91718364 0.7131612 -0.41937962 -0.54074866 0.032357763 0.62065583 1.5140387
-1.1308801 0.68729246 -1.0606736 -1.2355452 0.55392975 0.33410394 1.3335787 -1.1846417
1.2063497 -2.225854 -0.042550698 -0.79349583 0.49229005 -0.7130615 -0.7813358 -0.4902166
-1.373833 0.24984716 0.31614286 -2.60963 -0.97960615 -0.0910284 -1.0407374 0.12169456
-0.9864928 -0.57727486 -0.20795763 0.008394934 0.28813186 0.8802147 0.28596157 -0.6014226
-1.1016603 -0.64081734 1.9427242 1.2535746 -0.55933046 1.4729524 -1.2102644 0.7707684
0.26737216 1.1774778 0.45510033 0.66794026 1.4404966 -0.65063304 1.3059815 -0.05844418
-0.93905914 -0.112596266 -0.012619164 -1.1460806 1.5594447 -0.43823606 0.59090763 1.4660237
0.18233852 0.17397487 0.39701152 -1.9160023 0.9648916 -0.4426815 -0.5514201 -1.2886238
-0.022930019 0.89598167 0.9871526 -0.11078808 0.42196864 -0.96619594 0.9731527 0.043101717
-1.3060662 0.35416096 -0.81165093 0.27338535 0.49852633 0.2956259 0.90750134 1.2057731
0.5027892 -0.22449924 1.3649539 -0.8858416 -0.6791823 0.0037569935 1.0222245 0.57821566
-1.9528556 0.116398185 0.004436589 -0.36803713 -0.7962019 1.6670105 -0.041299213 -0.74578977
-0.028216565 -0.13787381 0.21878383 -0.53503126 2.080267 0.8720686 -1.5198244 2.5621655
1.0290759 0.3273949 -0.2714626 0.6032563 -1.887695 -0.15403272 0.08699852 -0.23792389
1.6038612 -0.3846974 2.450436 -0.9026844 1.0623964 -0.80833465 -0.5259781 0.59771615
0.3644684 1.0246459 -0.38554665 -1.7597 -0.24726729 0.7778484 -1.2288479 1.9061278
0.9549979 1.7474618 -0.6286243 0.5253167 1.0532243 -0.8414093 -1.0509107 0.36352515
-0.41245484 0.3146988 0.53815734 -0.52707225 -0.11087981 0.53766143 -0.4386423 -1.8405544
1.9036734 -0.31396288 -0.27512562 -0.32608312 0.70266557 -0.88208234 1.3812948 -1.2632276
-1.8623408 -0.17864452 0.014286741 -1.4974017 -1.0024716 0.3323653 0.35898334 -0.46332052
0.80547506 0.31017333 -1.9356397 -0.9127526 1.013199 -0.31154752 1.1318157 0.6792695
0.5507669 1.1645347 -0.29748115 0.38034287 1.0847592 0.2943981 -0.9298093 0.703615
0.12245543 0.17392372 0.72163504 0.7032194 0.39376903 0.28374058 0.31176472 -0.7250004
0.8008125 -0.4623018 0.45318398 -0.021174762 0.54817194 -0.70952284 -0.47897422 -0.8718254
-1.2075106 0.55951506 -0.42636406 0.41317287 0.038320493 -0.8107212 1.177872 -0.19781098
-0.7708857 -0.8878554 0.038180787 2.0962653 -0.90168226 -0.82082486 1.0694144 0.5470952
00000000: 1b75 db3f 94f1 6f3f aa81 ad3f 1356 213e
00000010: 5abe 03bf ecff c7bf 94bc 39bf 6664 e43f
00000020: f82c 01bf 3ec9 2cbf bd6e 9b3c 5ea6 fc3e
00000030: 6c5d 063f 75d0 ea3e f71f 1b3e 17ba 61bd
00000040: 6b98 953d a99c 503f 6bbf 243f b466 14c0
00000050: 7295 b6bc d811 6fbe 2564 85be 7c7c 8c3c
00000060: 8532 49bd bcf7 623e 4d9e 243e 9bb3 2bbf
00000070: 6002 b63e d189 68bf 7ed4 8cbf bb17 cabf
00000080: 0470 2e3f 3cea 2abf 5d57 f13f b8ef 92bd
00000090: 23a7 e9bf e66d 1ebf 30eb 85be 64e4 a43e
000000a0: d033 613f 8ccc 6a3f bb91 363f edb8 d6be
000000b0: 816e 0abf 9389 043d 4de3 1e3f 05cc c13f
000000c0: aec0 90bf 66f2 2f3f 27c4 87bf 5826 9ebf
000000d0: 57ce 0d3f ac0f ab3e b5b2 aa3f 57a2 97bf
000000e0: ab69 9a3f 6474 0ec0 a449 2ebd 8b22 4bbf
000000f0: 710d fc3e 338b 36bf 9f05 48bf acfd fabe
00000100: c2d9 afbf efd7 7f3e 7add a13e 2e04 27c0
00000110: 78c7 7abf 196d babd e236 85bf ff3a f93d
00000120: cb8a 7cbf 49c8 13bf d8f2 54be e88a 093c
00000130: 0586 933e c055 613f 8e69 923e d5f6 19bf
00000140: 3403 8dbf 9b0c 24bf 30ab f83f 2275 a03f
00000150: 4830 0fbf b489 bc3f f2e9 9abf 1451 453f
00000160: 01e5 883e 98b7 963f e902 e93e 22fe 2a3f
00000170: 3162 b83f e38f 26bf 672a a73f 2a63 6fbd
00000180: 2e66 70bf df98 e6bd 9cc0 4ebc c5b2 92bf
00000190: e29b c73f 7a60 e0be b945 173f aaa6 bb3f
000001a0: f3b6 3a3e 7826 323e 1845 cb3e 903f f5bf
000001b0: 2303 773f 26a7 e2be de29 0dbf a0f1 a4bf
000001c0: bcd7 bbbc 0e5f 653f 08b6 7c3f dce4 e2bd
000001d0: 460c d83e 9e58 77bf 8920 793f 6d8b 303d
000001e0: 2d2d a7bf 9654 b53e 5bc8 4fbf 2af9 8b3e
000001f0: d83e ff3e 475c 973e 0252 683f c656 9a3f
00000200: cbb6 003f 21e3 65be cfb6 ae3f 84c6 62bf
00000210: e4de 2dbf e437 763b 41d8 823f f105 143f
00000220: 2cf7 f9bf 2c62 ee3d ce60 913b 5d6f bcbe
00000230: e3d3 4bbf 9a60 d53f 5d29 29bd 14ec 3ebf
00000240: 6d26 e7bc cb2e 0dbe de08 603e cff7 08bf
00000250: 1823 0540 e33f 5f3f 9b89 c2bf 85fa 2340
00000260: c2b8 833f 4ea0 a73e 25fd 8abe 016f 1a3f
00000270: fd9f f1bf c1ba 1dbe 482c b23d 52a2 73be
00000280: 534b cd3f 0ff7 c4be f2d3 1c40 5316 67bf
00000290: 9bfc 873f 05ef 4ebf 80a6 06bf ed03 193f
000002a0: 9a9b ba3e 9927 833f 5f66 c5be d93d e1bf
000002b0: a333 7dbe 1321 473f e34a 9dbf fffb f33f
000002c0: be7a 743f d4ac df3f 86ed 20bf 287b 063f
000002d0: 0ed0 863f 9a66 57bf 3e84 86bf f81f ba3e
000002e0: 482d d3be 3320 a13e aec4 093f 35ee 06bf
000002f0: f414 e3bd 2ea4 093f b995 e0be 4997 ebbf
00000300: 92ab f33f bebf a0be 44dd 8cbe 5ef4 a6be
00000310: e4e1 333f 26d0 61bf 45ce b03f 71b1 a1bf
00000320: 2f61 eebf 97ee 36be ef12 6a3c dcaa bfbf
00000330: fd50 80bf c92b aa3e aacc b73e 5938 edbe
00000340: 9d33 4e3f 0acf 9e3e 0bc3 f7bf 28aa 69bf
00000350: 81b0 813f 2883 9fbe 56df 903f 9be4 2d3f
00000360: 0fff 0c3f 790f 953f 734f 98be 4dbc c23e
00000370: 64d9 8a3f 59bb 963e fb07 6ebf 1d20 343f
00000380: eac9 fa3d 0f19 323e 13bd 383f 3006 343f
00000390: 189c c93e 7246 913e a09f 9f3e a099 39bf
000003a0: 0c02 4d3f d2b2 ecbe bb07 e83e b276 adbc
000003b0: ff54 0c3f 4aa3 35bf 1c3c f5be f32f 5fbf
000003c0: b58f 9abf 613c 0f3f 644c dabe 658b d33e
000003d0: f3f5 1c3d 6d8b 4fbf 82c4 963f f68e 4abe
000003e0: c458 45bf 7e4a 63bf 7563 1c3d 3629 0640
000003f0: a6d4 66bf 9421 52bf 92e2 883f 6e0e 0c3f

decoder.lstm.weight_ih_l0 f4 [200, 16]
0.67738354 -0.42640033 -0.63890254 -0.44272757 0.074446954 -0.41364598 1.3397673 0.21395193
0.59325075 -0.39836314 0.52813226 -0.15299837 0.24137673 -0.34616074 -0.4565669 -0.3190038
0.024028795 -0.076814055 -1.0620235 0.039270256 -0.47475943 0.42826796 0.52483207 -0.5284288
-1.4885657 -0.4114087 0.8900025 -0.73283637 -0.22299054 -0.047134187 -0.28657222 0.25200215
0.07421773 -0.66859835 -0.87159055 0.39232725 0.26129854 0.48927787 0.3522688 -0.17908567
-1.22771 -0.6714264 0.14666873 -0.5502693 0.042270124 0.08806823 0.009495119 0.24737728
0.004845272 0.12647872 0.031059166 -0.12175018 0.06761719 -0.05240179 -0.071268864 -0.023481216
-0.12855701 0.047730103 0.019271515 0.049714383 0.22320116 -0.1451644 0.12445744 -0.1280561
-0.539917 -0.42140377 0.06992159 0.49021345 -0.29974356 -0.1109717 0.37386084 -0.3345349
0.26903275 -0.10807158 1.4616686 -1.2372078 -0.25779176 -0.60520756 -0.15317428 0.66566026
-0.11897067 0.9740877 -1.4894469 0.2948634 0.051422793 0.56189936 -0.24519953 -0.565928
0.6511521 -0.8427811 0.5299179 -0.16134329 -0.47629285 -0.6098716 -0.1443503 0.848054
0.23740795 -0.1527564 -0.056197334 0.026306981 0.046546698 0.061026968 -0.24809162 -0.035519246
0.3582671 0.03638471 0.014386358 -0.62730026 0.5970874 0.6094523 -0.53295696 0.50701153
-0.19067273 0.87855166 -0.6213992 -0.08556322 -0.06782572 0.8864952 -0.3725885 0.0326564
-1.0493475 -0.7041978 0.53818166 -1.4243196 0.039082646 -0.90673363 -0.16422877 0.9797489
-0.55023086 -0.45942122 -0.28608698 -0.06780019 -0.5775575 0.41148114 0.14974041 -0.20125654
-0.27315432 -0.88158506 -0.19504693 -0.521941 -0.5002673 0.9297724 -1.1224661 0.34164137
-0.6237601 0.25058386 -0.10726865 -0.77877367 -0.032752424 0.83869016 -0.2568605 -0.550528
-0.57989675 0.04157309 0.33161864 -0.42297503 0.07502086 0.19027446 0.3338867 -0.026736544
0.08035972 0.1400172 -0.8951788 0.6412529 -0.2901439 0.2975168 0.37542075 0.1272964
-0.4189848 0.5566761 1.1955571 -0.51608163 0.32904685 -0.62453747 -0.36364278 0.914699
-1.0856519 0.25784236 0.20991679 -0.53019685 -0.17115425 0.9409119 -0.76819056 -0.26747423
-0.9856257 -0.12748553 -0.12839547 -0.65531886 1.0310482 -0.3381094 -0.12084301 -0.015167281
0.021316733 0.109536275 -0.06939117 0.29688317 -0.18343128 -0.06845466 -0.29099405 0.13421933
-0.3033821 0.061876066 -0.2755478 -0.0005492257 0.54331523 -0.5122418 0.21463561 0.005531692
-0.4219655 -0.3752786 -1.0000956 -0.15213785 -0.8064561 1.2094167 0.25355542 -0.6017102
-1.0070851 -1.1380423 1.0065967 -0.34677276 0.11593059 -0.4123235 -0.5417856 0.39147007
-0.028545506 0.18415682 -0.44950852 0.37717837 0.11953815 -0.16783528 0.26124862 0.092387326
-0.24357124 0.38277003 0.036451567 -0.34915617 -0.44227165 0.28926754 -0.060148638 0.12862025
0.559419 0.70970535 -0.54886454 0.08032991 0.1319914 0.7969564 -0.21685287 -1.3774935
-0.1841667 0.14438535 0.44956642 -0.19021894 -0.7162528 -1.0480006 0.1657081 -0.07768221
00000000: 0269 2d3f 2551 dabe 1e8f 23bf 30ad e2be
00000010: a577 983d 68c9 d3be 7f7d ab3f 3716 5b3e
00000020: 48df 173f 41f6 cbbe ad33 073f 9bab 1cbe
00000030: 762b 773e fb3b b1be 23c3 e9be 7754 a3be
00000040: 09d8 c43c b050 9dbd 63f0 87bf d9d9 203d
00000050: ab13 f3be f045 db3e 655b 063f 1c47 07bf
00000060: 5289 bebf 29a4 d2be 34d7 633f 2a9b 3bbf
00000070: a257 64be c70f 41bd 98b9 92be 6d06 813e
00000080: 77ff 973d 4329 2bbf 8f20 5fbf 1edf c83e
00000090: ecc8 853e a182 fa3e 935c b43e 3c62 37be
000000a0: 9a25 9dbf 9ae2 2bbf 5430 163e 73de 0cbf
000000b0: 7023 2d3d 1e5d b43d 6a91 1b3c 7850 7d3e
000000c0: 16c5 9e3b a383 013e cb6f fe3c 2958 f9bd
000000d0: e27a 8a3d 42a3 56bd 69f5 91bd ae5b c0bc
000000e0: 73a4 03be a480 433d 4cdf 9d3c 4fa1 4b3d
000000f0: d88e 643e faa5 14be 8be3 fe3d 2321 03be
00000100: 0038 0abf 3cc2 d7be 0d33 8f3d 42fd fa3e
00000110: fd77 99be 2145 e3bd b06a bf3e 2948 abbe
00000120: a9be 893e a254 ddbd f517 bb3f d35c 9ebf
00000130: 48fd 83be e2ee 1abf b8d9 1cbe b668 2a3f
00000140: e5a6 f3bd d05d 793f 32a6 bebf 56f8 963e
00000150: b5a0 523d a3d8 0f3f 9615 7bbe a8e0 10bf
00000160: e7b1 263f 81c0 57bf b3a8 073f 2d37 25be
00000170: a8dc f3be 8c20 1cbf 91d0 13be 111a 593f
00000180: 121b 733e 2c6c 1cbe 2d2f 66bd bd81 d73c
00000190: c0a7 3e3d 6af7 793d bb0b 7ebe a17c 11bd
000001a0: c96e b73e 2208 153d c2b4 6b3c c096 20bf
000001b0: b8da 183f 1105 1c3f de6f 08bf 82cb 013f
000001c0: b63f 43be c3e8 603f 0514 1fbf c53b afbd
000001d0: 36e8 8abd 59f1 623f ebc3 bebe b8c2 053d
000001e0: 0551 86bf 4f46 34bf 46c6 093f 1b50 b6bf
000001f0: 2015 203d b21f 68bf 962b 28be d3d0 7a3f
00000200: eedb 0cbf 4239 ebbe fe79 92be d3da 8abd
00000210: cfda 13bf a8ad d23e 8d55 193e 3216 4ebe
00000220: e2da 8bbe 8faf 61bf 62ba 47be ed9d 05bf
00000230: 8511 00bf 9005 6e3f f8ac 8fbf 9eeb ae3e
00000240: beae 1fbf 874c 803e aaaf dbbd b65d 47bf
00000250: 6827 06bd 66b4 563f 3883 83be 67ef 0cbf
00000260: 1d74 14bf 8b48 2a3d ebc9 a93e 2f90 d8be
00000270: 89a4 993d 4fd7 423e 33f3 aa3e 9906 dbbc
00000280: a393 a43d ab60 0f3e 702a 65bf 2629 243f
00000290: be8d 94be 1f54 983e 2637 c03e fd59 023e
000002a0: 2d85 d6be 5382 0e3f 0408 993f ed1d 04bf
000002b0: d478 a83e b0e1 1fbf 632f babe b729 6a3f
000002c0: a4f6 8abf ea03 843e 6df4 563e fbba 07bf
000002d0: 0f43 2fbe 9adf 703f 23a8 44bf 62f2 88be
000002e0: f751 7cbf 918b 02be 1a7a 03be fac2 27bf
000002f0: 63f9 833f ad1c adbe 8a7c f7bd 3080 78bc
00000300: 6ea0 ae3c 8e54 e03d f51c 8ebd 1201 983e
00000310: 69d5 3bbe f531 8cbd 2cfd 94be cb70 093e
00000320: e654 9bbe c271 7d3d 9a14 8dbe eaf9 0fba
00000330: b516 0b3f 4722 03bf 70c9 5b3e 3243 b53b
00000340: dd0b d8be 8424 c0be 2203 80bf 06ca 1bbe
00000350: e873 4ebf 2bce 9a3f 04d2 813e ae09 1abf
00000360: 2ae8 80bf 5fab 91bf 29d8 803f 338c b1be
00000370: 046d ed3d 111c d3be 76b2 0abf c46e c83e
00000380: 44d8 e9bc 9b93 3c3e fb25 e6be 861d c13e
00000390: 6bd0 f43d 03dd 2bbe 61c2 853e 9135 bd3d
000003a0: bd6a 79be 6ffa c33e 3d4e 153d 99c4 b2be
000003b0: 6e71 e2be e01a 943e 6b5e 76bd 07b5 033e
000003c0: 1536 0f3f 40af 353f 6382 0cbf 0284 a43d
000003d0: c128 073e 5605 4c3f ae0e 5ebe b551 b0bf
000003e0: 3296 3cbe c1d9 133e 922d e63e c1c8 42be
000003f0: 585c 37bf e224 86bf 62af 293e da17 9fbd

decoder.lstm.weight_hh_l0 f4 [200, 50]
-0.7534651 -0.04174862 0.054215282 0.06291076 0.530744 -0.2752272 0.23900588 -0.61427695
-0.08522166 -0.88093656 -0.1853514 -0.2700973 -0.5101725 0.2976154 -0.14599702 0.013920902
-0.44339836 0.97824585 -0.8199428 -0.23468612 -0.060118698 -0.10067092 -0.10132147 0.9513123
-0.20894761 0.16569085 0.15770487 -0.19531691 0.5809895 0.40759373 -0.99417114 0.32526347
0.435589 0.01673113 -1.2409594 0.14243706 -0.044898596 -0.16311064 -0.16596237 0.24384192
-0.42846674 0.14767984 -0.90738326 0.1222329 0.70079565 0.28363207 -0.27459753 -0.14015725
-0.33865204 -0.58544225 0.5099104 0.37506953 -0.36657056 0.16810635 -0.2837735 0.052669626
0.24630603 0.13212101 0.1687758 -0.005521813 -0.028411975 -0.024557225 -0.23764288 -0.122538745
-0.22100203 -0.084146746 -0.112864494 -0.04604659 0.08913294 0.39900348 0.0070348135 -0.4554572
0.1985415 -0.21041994 -0.01431872 0.093551114 -0.1371814 -1.1438073 0.15537809 -0.85354125
0.04995399 0.26181775 0.09708841 0.2152021 0.07485185 -0.63482267 -0.2911853 -0.26722732
-0.6120073 -0.078244366 -0.27425647 0.31440789 0.26118505 0.38286915 0.34648725 -0.029370483
0.35088047 0.15266712 0.074903004 -0.24317788 -0.16985399 -0.013528815 0.3011084 0.17173712
0.33787212 -0.3888367 0.64144677 0.062213253 0.24581541 -1.0820261 -0.56684023 -0.14871822
-0.19049165 0.3609428 -0.05295264 -0.13407314 0.11285919 0.4778142 -0.33546022 0.10924014
0.11391606 -0.628342 0.31437466 1.0034443 -0.16266443 0.24717432 0.18943936 -0.27246243
0.6315537 0.096034676 -0.20674244 0.42386675 0.63460827 -0.49956337 0.14572243 0.013133379
0.5214205 -0.12813202 -0.17624043 0.7776518 -0.3119671 -0.12518868 -0.25076097 0.9809157
0.3855578 0.0017345219 -0.22335194 0.39751503 0.7972537 -0.50629157 0.0011585179 0.085945226
-0.2198317 0.10261273 -0.14676294 -0.11337788 0.07332535 0.17264588 -0.05393194 0.15337501
-0.006106729 -0.012365847 0.061548073 -0.045444176 0.113973886 0.06804592 -0.03016082 -0.09475777
0.24548115 0.05726279 -0.07652841 0.16454622 -0.10703103 -0.14191693 0.17598884 -0.26896062
-0.06399704 0.015214539 -0.057532325 0.124507524 0.227392 -0.12870891 -0.01612599 -0.1622343
0.050716277 0.123328246 -0.1988524 0.4134727 0.048336316 -0.04199134 0.1509088 -0.28156784
0.06384564 -0.15781988 -0.15335578 -0.021262715 -0.027102957 0.08465595 -0.037132397 0.18026827
-0.43424252 -0.7331179 0.44656205 0.34598053 0.2663132 -0.15305656 0.8488926 -0.49152675
0.17819712 -1.0563767 -0.32447538 -0.33239064 0.08177935 -0.03163912 0.08782797 -0.07318089
0.43800256 0.53519154 -0.5935013 -0.31779438 -0.054599084 -0.57495654 -0.19427848 1.3068035
-0.25611588 0.027682917 -0.4936529 -0.1976497 0.4583063 0.2690149 -0.24795823 0.64311814
0.42633995 -0.5987293 -0.19704142 -0.1712428 0.93031526 0.2745448 -0.4688243 0.8889076
-0.20301187 -0.24345595 0.018741619 0.0744158 0.52682996 -0.08800745 -0.07911165 -0.26037344
-0.2940736 -0.44019538 -0.7308927 -0.15666127 0.35793647 0.24431312 -0.06275449 0.5293064
00000000: 17e3 40bf 9a00 2bbd d810 5e3d 5bd7 803d
00000010: d7de 073f 94ea 8cbe f5bd 743e 4141 1dbf
00000020: b288 aebd 0f85 61bf c2cc 3dbe 314a 8abe
00000030: aa9a 02bf 0c61 983e 3e80 15be 7f14 643c
00000040: 1c05 e3be 526e 7a3f c5e7 51bf 8f51 70be
00000050: 063f 76bd 8e2c cebd a281 cfbd 3489 733f
00000060: 5df6 55be ddaa 293e 637d 213e 2801 48be
00000070: babb 143f 20b0 d03e 0082 7ebf ef88 a63e
00000080: 8505 df3e b90f 893c c2d7 9ebf 05db 113e
00000090: 97e7 37bd 7a06 27be 0af2 29be b2b1 793e
000000a0: fe5f dbbe 6239 173e 454a 68bf 3e55 fa3d
000000b0: 5867 333f 3938 913e 0c98 8cbe 6285 0fbe
000000c0: cd63 adbe 8bdf 15bf 7d89 023f 1d09 c03e
000000d0: 23af bbbe 1224 2c3e c34a 91be 1bbc 573d
000000e0: a637 7c3e bb4a 073e 90d3 2c3e 53f0 b4bb
000000f0: 3bc0 e8bc 3c2c c9bc a858 73be 98f5 fabd
00000100: 5b4e 62be 2155 acbd 8025 e7bd 599b 3cbd
00000110: 558b b63d 2f4a cc3e 4b84 e63b b031 e9be
00000120: 774e 4b3e 5378 57be 1199 6abc ba97 bf3d
00000130: 4879 0cbe 4768 92bf 6f1b 1f3e ae81 5abf
00000140: 8e9c 4c3d fa0c 863e 4ad6 c63d f05d 5c3e
00000150: ed4b 993d bd83 22bf 3d16 95be 05d2 88be
00000160: 83ac 1cbf 953e a0bd 586b 8cbe 12fa a03e
00000170: 0cba 853e 6d07 c43e c766 b13e 5e9a f0bc
00000180: 9ba6 b33e c554 1c3e bf66 993d 9f03 79be
00000190: 34ee 2dbe f6a7 5dbc e12a 9a3e dbdb 2f3e
000001a0: 93fd ac3e 9b15 c7be db35 243f 53d3 7e3d
000001b0: 09b7 7b3e d57f 8abf 711c 11bf 9749 18be
000001c0: 3e10 43be 7fcd b83e dee4 58bd 784a 09be
000001d0: b822 e73d 10a4 f43e 71c1 abbe 4bb9 df3d
000001e0: d34c e93d 05db 20bf b7f5 a03e dd70 803f
000001f0: 8191 26be 441b 7d3e 64fc 413e 3280 8bbe
00000200: 81ad 213f d4ad c43d 4ab4 53be 1005 d93e
00000210: b075 223f c5c6 ffbe 4338 153e 622d 573c
00000220: d07b 053f 0a35 03be 5f78 34be 3014 473f
00000230: 27ba 9fbe 7631 00be be63 80be 4b1d 7b3f
00000240: d567 c53e e658 e33a 5fb6 64be 1787 cb3e
00000250: d218 4c3f 539c 01bf 69d9 973a 0d04 b03d
00000260: 901b 61be 9f26 d23d 0649 16be a932 e8bd
00000270: 9a2b 963d 15ca 303e bde7 5cbd 570e 1d3e
00000280: f51a c8bb 1f9a 4abc d519 7c3d ac23 3abd
00000290: 246b e93d a95b 8b3d d313 f7bc 5d10 c2bd
000002a0: 695f 7b3e 638c 6a3d edba 9cbd ce7e 283e
000002b0: 1633 dbbd ac52 11be 6b36 343e 35b5 89be
000002c0: e110 83bd 6746 793c 04a7 6bbd cdfd fe3d
000002d0: 73d9 683e 45cc 03be a71a 84bc c020 26be
000002e0: dfbb 4f3d 8593 fc3d f79f 4bbe b2b2 d33e
000002f0: 4dfc 453d 1dff 2bbd d687 1a3e a929 90be
00000300: 81c1 823d 899b 21be 4c09 1dbe 252f aebc
00000310: 0507 debc 1960 ad3d 2418 18bd 3f98 383e
00000320: 0955 debe 9dad 3bbf c8a3 e43e 5c24 b13e
00000330: 345a 883e dcba 1cbe 0751 593f 65a9 fbbe
00000340: 4e79 363e 5a37 87bf a321 a6be 1b2f aabe
00000350: ef7b a73d 0698 01bd 27df b33d dddf 95bd
00000360: df41 e03e 5002 093f b4ef 17bf f2b5 a2be
00000370: 4aa3 5fbd 5a30 13bf f0f0 46be 5645 a73f
00000380: 9f21 83be 49c7 e23c 13c0 fcbe af64 4abe
00000390: 20a7 ea3e 52bc 893e c3e8 7dbe 64a3 243f
000003a0: 3b49 da3e 5346 19bf 3ac5 49be 465a 2fbe
000003b0: 2429 6e3f 2391 8c3e bd09 f0be 738f 633f
000003c0: 58e2 4fbe 844c 79be 0688 993c 5067 983d
000003d0: 54de 063f 403d b4bd 4a05 a2bd ab4f 85be
000003e0: d190 96be 4a61 e1be c91b 3bbf d06b 20be
000003f0: 7343 b73e 382d 7a3e 6d85 80bd a080 073f

decoder.lstm.bias_ih_l0 f4 [200]
-0.024529425 0.6303924 0.68882054 -0.19880123 0.49091482 0.5735425 0.37984177 1.3564276
0.5914578 0.071819745 0.6018263 0.5990093 0.023172181 0.541036 0.35594922 0.17634977
0.23821345 0.8199227 0.58381504 0.5554053 0.13148159 0.6685489 0.4125983 0.3198288
0.23909278 0.8557116 0.6808403 0.029545398 0.9721898 0.23467602 0.8578054 0.79576105
-0.10191875 0.6798233 0.65202296 0.20038414 0.9567582 0.59967357 0.03950502 0.45169845
0.70627964 -0.12646179 0.5278348 0.097861305 0.36954623 0.19650802 0.6719166 0.28440323
0.4140559 0.69882876 0.07315859 -0.23015086 -0.08852884 0.17752455 -0.33661783 -0.10475596
0.072296456 -0.022899065 0.14478494 0.14815018 -0.06784163 -0.045721322 0.07257305 0.19815576
0.03844563 0.09207627 -0.14840224 0.104479134 -0.06303289 -0.042614486 0.101675674 0.095431104
0.11892673 0.05571966 0.034340635 -0.38518938 0.20683764 -0.041072447 -0.13423614 -0.018889418
-0.06310838 -0.17375204 0.1412912 -0.18611331 -0.013858833 0.19403318 0.050755884 0.12764668
-0.0038633721 -0.0036289382 0.055625197 0.15716352 -0.017321123 -0.12297603 -0.048603643 0.15786107
-0.1958228 -0.038136676 0.041705344 -0.1131711 0.06794644 0.018632237 -0.13192748 0.018226776
0.20847987 -0.04802534 0.4103829 -0.46082655 0.24263538 -0.15829694 0.111583024 0.042016186
-0.12705652 -0.32634428 -0.39829075 -0.32079905 -0.09658521 -0.463273 0.05234432 0.05539224
0.17943513 -0.10578615 0.5062061 0.05817665 -0.22405753 0.00906084 0.087559804 -0.1547933
-0.13432021 -0.15174292 -0.27201152 0.08671133 -0.074947275 0.27370262 -0.24162102 -0.5612825
0.22628284 -0.0068082237 -0.12956558 -0.09128064 -0.27692285 -0.19811165 -0.46367988 0.14563568
0.3202608 0.35151866 0.31273437 0.12700066 0.09290878 -0.6296289 0.061989278 0.92376566
0.5369434 0.014522677 0.24633639 0.8123742 0.29396036 0.35744354 0.3123611 0.0007235427
0.24540178 0.51400375 0.10496188 0.6415674 0.04228468 0.16604614 0.26270744 0.646641
0.13592109 0.6286842 0.30501416 0.29112965 0.3341319 0.15429595 0.27119082 1.0899158
0.14765944 0.3756545 0.96546686 0.2878385 0.2723383 -0.046788026 0.053301223 1.0167327
0.77061146 0.6145938 0.34978992 0.6230347 0.25411758 0.35215032 0.4712521 0.21067691
0.0963992 0.19479463 0.073095106 0.24262281 0.8332813 0.06040293 0.30602592 0.26771647
00000000: eff1 c8bc 6561 213f 8b56 303f 8d92 4bbe
00000010: 3059 fb3e aed3 123f 9f7a c23e 6b9f ad3f
00000020: c769 173f 3b16 933d 4a11 1a3f ac58 193f
00000030: 96d3 bd3c 5681 0a3f fa3e b63e 0995 343e
00000040: 3aee 733e 74e6 513f e774 153f 0b2f 0e3f
00000050: 1ca3 063e 0526 2b3f 1640 d33e 9ac0 a33e
00000060: bdd4 743e ea0f 5b3f 8d4b 2e3f 3109 f23c
00000070: 6ee1 783f e94e 703e 2299 5b3f ffb6 4b3f
00000080: c7ba d0bd e608 2e3f faea 263f 8031 4d3e
00000090: 1bee 743f 3584 193f 04d0 213d 0545 e73e
000000a0: bece 343f 337f 01be 2e20 073f 826b c83d
000000b0: 2a35 bd3e 6639 493e ba02 2c3f 4d9d 913e
000000c0: 23ff d33e 71e6 323f 2cd4 953d abac 6bbe
000000d0: 9c4e b5bd ffc8 353e 2c59 acbe 4b8a d6bd
000000e0: 2a10 943d d296 bbbc 8142 143e aeb4 173e
000000f0: 8df0 8abd 4846 3bbd 2ea1 943d 58e9 4a3e
00000100: 2a79 1d3d 7c92 bc3d c2f6 17be 28f9 d53d
00000110: 6317 81bd 878c 2ebd 563b d03d 6271 c33d
00000120: db8f f33d 4c3a 643d c4a8 0c3d 8b37 c5be
00000130: 3fcd 533e 953b 28bd 3375 09be fbbd 9abc
00000140: f73e 81bd 0eec 31be a4ae 103e 7d94 3ebe
00000150: 2910 63bc a2b0 463e 67e5 4f3d d0b5 023e
00000160: a130 7dbb 7bd3 6dbb 3fd7 633d 79ef 203e
00000170: 07e5 8dbc dbda fbbd 9d14 47bd 55a6 213e
00000180: c685 48be 3435 1cbd 39d3 2a3d 40c6 e7bd
00000190: 8127 8b3d a2a2 983c ff17 07be 5250 953c
000001a0: bf7b 553e 38b6 44bd b51d d23e 75f1 ebbe
000001b0: 6975 783e 9818 22be a485 e43d 2a19 2c3d
000001c0: 1b1b 02be 9916 a7be c4ec cbbe c63f a4be
000001d0: 77ce c5bd 1e32 edbe ff66 563d f9e2 623d
000001e0: d8bd 373e 69a6 d8bd b996 013f a44a 6e3d
000001f0: 566f 65be eb73 143c 8e52 b33d 2382 1ebe
00000200: 3d8b 09be 7f62 1bbe 1845 8bbe b695 b13d
00000210: f57d 99bd c022 8c3e 806b 77be 36b0 0fbf
00000220: b0b6 673e 8517 dfbb d7ac 04be 58f1 babd
00000230: d5c8 8dbe c8dd 4abe 7367 edbe 8521 153e
00000240: 39f9 a33e 41fa b33e b81e a03e 760c 023e
00000250: f546 be3d 5c2f 21bf 78e8 7d3d e87b 6c3f
00000260: 1f75 093f 86f0 6d3c 9b3f 7c3e c1f7 4f3f
00000270: f981 963e d702 b73e cbed 9f3e 21ac 3d3a
00000280: 9b4a 7b3e c095 033f 41f6 d63d c33d 243f
00000290: b332 2d3d 0008 2a3e 9781 863e 448a 253f
000002a0: e62e 0b3e 73f1 203f d12a 9c3e f20e 953e
000002b0: 5613 ab3e c2ff 1d3e 86d9 8a3e 5c82 8b3f
000002c0: 0934 173e c955 c03e d628 773f 915f 933e
000002d0: ed6f 8b3e cda4 3fbd 6252 5a3d 4c24 823f
000002e0: cb46 453f 0556 1d3f aa17 b33e 347f 1f3f
000002f0: b31b 823e 0c4d b43e f547 f13e b0bb 573e
00000300: f26c c53d 3e78 473e e3b2 953d 1d72 783e
00000310: ec51 553f 1069 773d 6eaf 9c3e 2212 893e

decoder.lstm.bias_hh_l0 f4 [200]
-0.10523537 0.64450747 0.6601729 -0.19224527 0.4213665 0.4410976 0.3686449 1.3928466
0.5350732 -0.10674515 0.50097716 0.7106166 0.13233583 0.6832663 0.55568695 0.37994096
0.19412248 0.6947042 0.46583274 0.6281168 0.13147226 0.7502576 0.5428322 0.5403865
0.24968886 0.91623086 0.6493939 0.07812902 0.82068217 0.15570328 0.7970014 0.58338135
-0.20550792 0.7129583 0.797675 0.4566214 0.8525721 0.67462516 -0.0044207904 0.48267534
0.9416108 -0.084109455 0.49700618 0.13728926 0.51248103 0.0516754 0.618476 0.27559555
0.48530057 0.72965264 0.04575524 -0.21107243 -0.058948096 0.21167284 -0.2027029 -0.11566661
-0.0076129036 0.14489976 -0.055894572 0.057479117 -0.100854754 -0.16493183 0.10154631 0.023857918
0.058587313 0.063473985 -0.0201985 0.14887431 -0.03171886 -0.033395454 -0.0567604 0.046335682
0.11388001 -0.09161186 0.09809854 -0.4555485 0.2385642 0.084743515 -0.18350618 -0.06485904
0.053608213 -0.07934268 0.09254886 -0.19833854 0.15173933 -0.035169236 -0.016373971 -0.05789826
0.0012616947 -0.1848467 0.15702306 -0.023446932 0.14244252 -0.11311185 0.07331768 0.13028379
0.0609118 0.15421326 0.09430677 -0.122381106 0.18745779 0.1570008 -0.30899742 0.11629302
0.23233917 0.015963592 0.36753127 -0.39225867 0.38381577 -0.055636764 -0.0032368388 0.029909298
-0.056982886 -0.19165528 -0.39738268 -0.20125295 -0.1491801 -0.4977569 0.030306872 -0.14243135
0.051958 -0.22378226 0.48810503 0.22020286 -0.18893927 0.17665726 0.094385006 -0.06278107
-0.12293466 0.05393669 -0.48519325 0.12886527 0.04902668 0.01844305 -0.42245236 -0.51776224
0.3439465 0.16261242 -0.017901741 0.038310748 -0.40322807 0.02506839 -0.35922527 0.28767154
0.29038903 0.48583168 0.16577141 -0.11799269 0.12950568 -0.49933892 -0.11624225 0.71310306
0.5416903 0.0099358875 0.3264469 0.86384124 0.47772297 0.21522382 0.2657017 0.21262684
0.19084935 0.71436656 0.038269464 0.5273805 0.19574194 0.22393738 0.14918458 0.5857601
0.047420103 0.50746334 0.29945338 0.526927 0.39594883 0.1930979 0.2717783 1.2147504
0.3217776 0.30430725 0.9587052 0.5247385 0.23982061 0.055703484 0.07636953 1.0016254
0.656457 0.504549 0.46848744 0.5801284 0.119446516 0.42985606 0.30068406 0.36767644
0.1630063 0.26576737 -0.029885879 0.23238939 0.96412414 0.10048784 0.17212614 0.18517189
00000000: a485 d7bd 71fe 243f 1701 293f f2db 44be
00000010: 5abd d73e 8bd7 e13e 06bf bc3e cc48 b23f
00000020: 8ffa 083f 349d dabd 0a40 003f f8ea 353f
00000030: 0b83 073e 8aea 2e3f 8041 0e3f 9f87 c23e
00000040: 0bc8 463e 22d8 313f a181 ee3e 43cc 203f
00000050: aaa0 063e e210 403f 0df7 0a3f c556 0a3f
00000060: 70ae 7f3e 1b8e 6a3f ae3e 263f 1c02 a03d
00000070: 3a18 523f ae70 1f3e 4908 4c3f 7b58 153f
00000080: ab70 52be 6f84 363f 6e34 4c3f 48ca e93e
00000090: 2a42 5a3f 3cb4 2c3f 47dc 90bb 3921 f73e
000000a0: 680d 713f 9441 acbd 9877 fe3e 8e95 0c3e
000000b0: f531 033f 96a9 533d 7154 1e3f dc1a 8d3e
000000c0: 5179 f83e 84ca 3a3f d969 3b3d 5f23 58be
000000d0: 8f73 71bd c4c0 583e 5991 4fbe 9ee2 ecbd
000000e0: aa75 f9bb 9a60 143e b5f1 64bd 396f 6b3d
000000f0: f08c cebd e4e3 28be 83f7 cf3d ae71 c33c
00000100: 40f9 6f3d a6fe 813d 5377 a5bc 8272 183e
00000110: a3eb 01bd acc9 08bd 987d 68bd 7cca 3d3d
00000120: ec39 e93d 009f bbbd e3e7 c83d a73d e9be
00000130: 2c4a 743e 028e ad3d 0be9 3bbe d1d4 84bd
00000140: 4994 5b3d 6a7e a2bd 428a bd3d 4219 4bbe
00000150: 8e61 1b3e 9e0d 10bd b522 86bc ba26 6dbd
00000160: 735f a53a 7448 3dbe a7ca 203e c813 c0bc
00000170: 74dc 113e 30a7 e7bd 9427 963d 1d69 053e
00000180: a77e 793d 15ea 1d3e e823 c13d f2a2 fabd
00000190: eff4 3f3e d1c4 203e e934 9ebe 092b ee3d
000001a0: 52ea 6d3e 14c6 823c 0f2d bc3e 21d6 c8be
000001b0: 8083 c43e 60e3 63bd 2521 54bb 5804 f53c
000001c0: e366 69bd 4841 44be be75 cbbe 4115 4ebe
000001d0: abc2 18be fed9 febe 1e46 f83c 86d9 11be
000001e0: e9d1 543d 2d27 65be e7e8 f93e dc7c 613e
000001f0: 4c79 41be a4e5 343e ed4c c13d 5d93 80bd
00000200: 2bc5 fbbd b8ec 5c3d 406b f8be 42f5 033e
00000210: 33d0 483d e115 973c ad4b d8be 118c 04bf
00000220: c119 b03e df83 263e aca6 92bc bbeb 1c3d
00000230: e973 cebe 395c cd3c 60ec b7be af49 933e
00000240: dfad 943e eebe f83e fbbf 293e 27a6 f1bd
00000250: 239d 043e 5aa9 ffbe 6b10 eebd ec8d 363f
00000260: 37ac 0a3f 22ca 223c 0c24 a73e b324 5d3f
00000270: 1b98 f43e a263 5c3e 0e0a 883e daba 593e
00000280: 036e 433e bae0 363f 71c0 1c3d 6902 073f
00000290: 9370 483e d74f 653e d8c3 183e 60f4 153f
000002a0: 953b 423d 1ee9 013f f451 993e b0e4 063f
000002b0: ceb9 ca3e 75bb 453e 8626 8b3e f17c 9b3f
000002c0: 09c0 a43e 29ce 9b3e b46d 753f 4355 063f
000002d0: 8993 753e 5629 643d a167 9c3d 4335 803f
000002e0: 910d 283f 202a 013f 96dd ef3e 4b83 143f
000002f0: 60a0 f43d 1816 dc3e 43f3 993e 1640 bc3e
00000300: 20eb 263e a912 883e 3bd3 f4bc 7cf7 6d3e
00000310: d7d0 763f 92cc cd3d d641 303e b39d 3d3e
